EXAM_OPENCV/data/model/exmodel.pt (torch, 3720 bytes, 5 tensors)

weight f4 [4, 8]
000000 bd ce 06 bf d0 1a cc bd 16 16 f0 be 10 5a a5 3d
       -0.5265921 -0.099660516 -0.4689185 0.08073819
000010 63 45 0b 3f a5 15 82 be f6 27 b7 be f8 c5 8c 3d
       0.5440275 -0.25407138 -0.35772675 0.06873697
000020 3e 57 1b bf c6 ce 80 3e c6 21 ac 3e 42 c7 e8 3e
       -0.60679996 0.25157756 0.33619517 0.45464522
000030 c0 e4 e1 3c 63 80 14 bf 08 79 9d 3d 14 3f 2d bf
       0.027574897 -0.580084 0.076891005 -0.67674375
000040 2e 1d df 3e a7 1b 24 3f 4a 4d e2 be 20 bc 7d 3e
       0.4357695 0.64104694 -0.44199592 0.24778795
000050 45 5d d3 be 18 37 d3 bd 88 b7 fb bd b8 f6 e9 bd
       -0.41282097 -0.10313243 -0.12290865 -0.11424011
000060 1a 30 5b be fe e2 ee 3e f5 7a b3 be 20 96 a0 3d
       -0.21405068 0.46657556 -0.35054746 0.07841134
000070 86 6d ba 3e 30 b2 32 3d 65 1d 22 bf eb 35 28 3f
       0.36411685 0.043626964 -0.633261 0.6570727

bias f4 [4]
000000 6c d1 9b be 3b a3 82 3e 8e 90 2a 3e ef 2c 8d 3e
       -0.30433214 0.2551516 0.16656706 0.27573344

weight f4 [2, 4]
000000 00 ca 2e 3f 57 3f 6d 3e 6c 69 07 3f d2 55 d4 be
       0.6827698 0.23168693 0.52895236 -0.41471726
000010 64 51 49 bf 0a 3e d3 be ee 28 87 bc 0d 09 c5 3d
       -0.7863982 -0.4125827 -0.016499009 0.09620867

bias f4 [2]
000000 c2 dc b7 3e a0 66 8b be
       0.35910612 -0.27226734

weight f4 [1, 2]
000000 59 16 ad be ec 94 17 3e
       -0.33806112 0.14802903
